…
096 [1:22:17<00:04,  1.74it/s]SpEmbd Seq: 100%|█████████▉| 7090/7096 [1:22:18<00:03,  1.70it/s]SpEmbd Seq: 100%|█████████▉| 7091/7096 [1:22:18<00:02,  1.74it/s]SpEmbd Seq: 100%|█████████▉| 7092/7096 [1:22:19<00:02,  1.99it/s]SpEmbd Seq: 100%|█████████▉| 7093/7096 [1:22:19<00:01,  2.28it/s]SpEmbd Seq: 100%|█████████▉| 7094/7096 [1:22:19<00:00,  2.48it/s]SpEmbd Seq: 100%|█████████▉| 7095/7096 [1:22:20<00:00,  2.49it/s]SpEmbd Seq: 100%|██████████| 7096/7096 [1:22:20<00:00,  2.83it/s]SpEmbd Seq: 100%|██████████| 7096/7096 [1:22:20<00:00,  1.44it/s]
AlexNet(
  (features): Sequential(
    (0): Conv2d(3, 64, kernel_size=(11, 11), stride=(4, 4), padding=(2, 2))
    (1): ReLU(inplace=True)
    (2): MaxPool2d(kernel_size=3, stride=2, padding=0, dilation=1, ceil_mode=False)
    (3): Conv2d(64, 192, kernel_size=(5, 5), stride=(1, 1), padding=(2, 2))
    (4): ReLU(inplace=True)
    (5): MaxPool2d(kernel_size=3, stride=2, padding=0, dilation=1, ceil_mode=False)
    (6): Conv2d(192, 384, kernel_size=(3, 3), stride=(1, 1), padding=(1, 1))
    (7): ReLU(inplace=True)
    (8): Conv2d(384, 256, kernel_size=(3, 3), stride=(1, 1), padding=(1, 1))
    (9): ReLU(inplace=True)
    (10): Conv2d(256, 256, kernel_size=(3, 3), stride=(1, 1), padding=(1, 1))
    (11): ReLU(inplace=True)
    (12): MaxPool2d(kernel_size=3, stride=2, padding=0, dilation=1, ceil_mode=False)
  )
  (avgpool): AdaptiveAvgPool2d(output_size=(6, 6))
  (classifier): Sequential(
    (0): Dropout(p=0.5, inplace=False)
    (1): Linear(in_features=9216, out_features=4096, bias=True)
    (2): ReLU(inplace=True)
    (3): Dropout(p=0.5, inplace=False)
    (4): Linear(in_features=4096, out_features=4096, bias=True)
    (5): ReLU(inplace=True)
    (6): Linear(in_features=4096, out_features=1024, bias=True)
  )
)
Traceback (most recent call last):
  File "seCNN2d.py", line 165, in <module>
    extractor('alexnet', 1024, phase=p)
  File "seCNN2d.py", line 111, in extractor
    model_ft, input_size = se.create_model()
  File "seCNN2d.py", line 48, in create_model
    model_ft = models.alexnet(pretrained=self.use_pretrained)
  File "/home/yjun/anaconda3/envs/slt2/lib/python3.6/site-packages/torchvision/models/alexnet.py", line 63, in alexnet
…
SpEmbd Seq:  99%|█████████▉| 635/642 [05:49<00:03,  1.84it/s]SpEmbd Seq:  99%|█████████▉| 636/642 [05:49<00:02,  2.04it/s]SpEmbd Seq:  99%|█████████▉| 637/642 [05:50<00:02,  2.25it/s]SpEmbd Seq:  99%|█████████▉| 638/642 [05:50<00:01,  2.36it/s]SpEmbd Seq: 100%|█████████▉| 639/642 [05:51<00:01,  2.09it/s]SpEmbd Seq: 100%|█████████▉| 640/642 [05:51<00:00,  2.10it/s]SpEmbd Seq: 100%|█████████▉| 641/642 [05:52<00:00,  1.97it/s]SpEmbd Seq: 100%|██████████| 642/642 [05:52<00:00,  1.80it/s]SpEmbd Seq: 100%|██████████| 642/642 [05:52<00:00,  1.82it/s]
AlexNet(
  (features): Sequential(
    (0): Conv2d(3, 64, kernel_size=(11, 11), stride=(4, 4), padding=(2, 2))
    (1): ReLU(inplace=True)
    (2): MaxPool2d(kernel_size=3, stride=2, padding=0, dilation=1, ceil_mode=False)
    (3): Conv2d(64, 192, kernel_size=(5, 5), stride=(1, 1), padding=(2, 2))
    (4): ReLU(inplace=True)
    (5): MaxPool2d(kernel_size=3, stride=2, padding=0, dilation=1, ceil_mode=False)
    (6): Conv2d(192, 384, kernel_size=(3, 3), stride=(1, 1), padding=(1, 1))
    (7): ReLU(inplace=True)
    (8): Conv2d(384, 256, kernel_size=(3, 3), stride=(1, 1), padding=(1, 1))
    (9): ReLU(inplace=True)
    (10): Conv2d(256, 256, kernel_size=(3, 3), stride=(1, 1), padding=(1, 1))
    (11): ReLU(inplace=True)
    (12): MaxPool2d(kernel_size=3, stride=2, padding=0, dilation=1, ceil_mode=False)
  )
  (avgpool): AdaptiveAvgPool2d(output_size=(6, 6))
  (classifier): Sequential(
    (0): Dropout(p=0.5, inplace=False)
    (1): Linear(in_features=9216, out_features=4096, bias=True)
    (2): ReLU(inplace=True)
    (3): Dropout(p=0.5, inplace=False)
    (4): Linear(in_features=4096, out_features=4096, bias=True)
    (5): ReLU(inplace=True)
    (6): Linear(in_features=4096, out_features=1024, bias=True)
  )
)
AlexNet(
  (features): Sequential(
    (0): Conv2d(3, 64, kernel_size=(11, 11), stride=(4, 4), padding=(2, 2))
    (1): ReLU(inplace=True)
    (2): MaxPool2d(kernel_size=3, stride=2, padding=0, dilation=1, ceil_mode=False)
    (3): Conv2d(64, 192, kernel_size=(5, 5), stride=(1, 1), padding=(2, 2))
    (4): ReLU(inplace=True)
    (5): MaxPool2d(kernel_size=3, stride=2, padding=0, dilation=1, ceil_mode=False)
    (6): Conv2d(192, 384, kernel_size=(3, 3), stride=(1, 1), padding=(1, 1))
    (7): ReLU(inplace=True)
    (8): Conv2d(384, 256, kernel_size=(3, 3), stride=(1, 1), padding=(1, 1))
    (9): ReLU(inplace=True)
    (10): Conv2d(256, 256, kernel_size=(3, 3), stride=(1, 1), padding=(1, 1))
    (11): ReLU(inplace=True)
    (12): MaxPool2d(kernel_size=3, stride=2, padding=0, dilation=1, ceil_mode=False)
  )
  (avgpool): AdaptiveAvgPool2d(output_size=(6, 6))
  (classifier): Sequential(
    (0): Dropout(p=0.5, inplace=False)
    (1): Linear(in_features=9216, out_features=4096, bias=True)
    (2): ReLU(inplace=True)
    (3): Dropout(p=0.5, inplace=False)
    (4): Linear(in_features=4096, out_features=4096, bias=True)
    (5): ReLU(inplace=True)
    (6): Linear(in_features=4096, out_features=1024, bias=True)
  )
)
